…
据集数量不够的情况下，效果很难提升。虽然模型大小可能会减少很多，但是精度可能会大打折扣。</p><p>有个很好的办法可以将模型大小再次减少不少，就是将输出的类别减少，其实发票数据集所需的文字alphabet不需要太多，可能只需要几百个就可以了，用的最多的就是一些大小写字母、数字和标点符号，以及百来个版面上用的文字信息，这样的话，最后进行linear连接的时候，参数的数量能够减少3M左右。</p><p>目前模型概况：</p><blockquote><p>CRNN  mobilenet V3  +  RNN</p><p>===================================================================<br>Layer (type:depth-idx)                   Output Shape              Param #</p><p>=====================================================================<br>├─CNN: 1-1                                [-1, 512, 1, 40]          –<br>|    └─Conv2d: 2-1                       [-1, 16, 16, 80]          144<br>|    └─BatchNorm2d: 2-2            [-1, 16, 16, 80]          32<br>|    └─hswish: 2-3                        [-1, 16, 16, 80]          –<br>|    └─Sequential: 2-4                  [-1, 160, 1, 40]          –<br>|    |    └─Block: 3-1                   [-1, 16, 16, 80]          752<br>|    |    └─Block: 3-2                   [-1, 24, 8, 40]           3,440<br>|    |    └─Block: 3-3                   [-1, 24, 8, 40]           4,440<br>|    |    └─Block: 3-4                   [-1, 40, 4, 40]           7,676<br>|    |    └─Block: 3-5                   [-1, 40, 4, 40]           14,060<br>|    |    └─Block: 3-6                   [-1, 40, 4, 40]           14,060<br>|    |    └─Block: 3-7                   [-1, 80, 2, 40]           32,080<br>|    |    └─Block: 3-8                   [-1, 80, 2, 40]           34,760<br>|    |    └─Block: 3-9                   [-1, 80, 2, 40]           31,992<br>|    |    └─Block: 3-10                  [-1, 80, 2, 40]           31,992<br>|    |    └─Block: 3-11                  [-1, 112, 2, 40]          114,360<br>|    |    └─Block: 3-12                  [-1, 112, 2, 40]          166,040<br>|    |    └─Block: 3-13                  [-1, 160, 2, 40]          234,032<br>|    |    └─Block: 3-14                  [-1, 160, 1, 40]          248,048<br>|    |    └─Block: 3-15                  [-1, 160, 1, 40]          348,560<br>|    └─Conv2d: 2-5                       [-1, 512, 1, 40]          81,920<br>|    └─BatchNorm2d: 2-6                  [-1, 512, 1, 40]          1,024<br>|    └─hswish: 2-7                       [-1, 512, 1, 40]          –<br>├─Sequential: 1-2                        [-1, 2, 5990]             –<br>|    └─RNN: 2-8                          [-1, 2, 5990]             –<br>|    |    └─LSTM: 3-16                   [-1, 2, 512]              1,576,960<br>|    |    └─Linear: 3-17                 [-1, 512]                 262,656<br>|    |    └─LSTM: 3-18                   [-1, 2, 512]              1,576,960<br>|    |    └─Linear: 3-19                 [-1, 5990]                3,072,870</p><p>=======================================================<br>Total params: 7,858,858<br>Trainable params: 7,858,858<br>Non-trainable params: 0<br>Total mult-adds (M): 110.31</p><p>========================================================<br>Input size (MB): 0.02<br>Forward/backward pass size (MB): 16.30<br>Params size (MB): 29.98<br>Estimated Total Size (MB): 46.29</p><p>======================
…
